…
Using 1280 files for validation.
2022-12-14 11:13:23.404336: I tensorflow/core/platform/cpu_feature_guard.cc:193] This TensorFlow binary is optimized with oneAPI Deep Neural Network Library (oneDNN) to use the following CPU instructions in performance-critical operations:  AVX AVX2
To enable them in other operations, rebuild TensorFlow with the appropriate compiler flags.
Model: "sequential"
_________________________________________________________________
 Layer (type)                Output Shape              Param #   
=================================================================
 conv2d (Conv2D)             (None, 208, 176, 16)      160       
                                                                 
 max_pooling2d (MaxPooling2D  (None, 104, 88, 16)      0         
 )                                                               
                                                                 
 conv2d_1 (Conv2D)           (None, 104, 88, 32)       4640      
                                                                 
 max_pooling2d_1 (MaxPooling  (None, 52, 44, 32)       0         
 2D)                                                             
                                                                 
 conv2d_2 (Conv2D)           (None, 52, 44, 64)        18496     
                                                                 
 max_pooling2d_2 (MaxPooling  (None, 26, 22, 64)       0         
 2D)                                                             
                                                                 
 conv2d_3 (Conv2D)           (None, 26, 22, 128)       73856     
                                                                 
 max_pooling2d_3 (MaxPooling  (None, 13, 11, 128)      0         
 2D)                                                             
                                                                 
 flatten (Flatten)           (None, 18304)             0         
                                                                 
 dense (Dense)               (None, 128)               2343040   
                                                                 
 dense_1 (Dense)             (None, 64)                8256      
                                                                 
 dense_2 (Dense)             (None, 4)                 260       
                                                                 
=================================================================
Total params: 2,448,708
Trainable params: 2,448,708
Non-trainable params: 0
_________________________________________________________________
An error occurred when trying to plot model

Epoch 1: LearningRateScheduler setting learning rate to 0.0010000000474974513.
…
